…
          epochs=5,
          validation_split=0.2,
          callbacks=[tensorboard_callback])
```

When run, it prints the following summary:
``` 
____________________________________________________________________________________
Layer (type)                          Output Shap Param  Connected to               
====================================================================================
input_1 (InputLayer)                  [(None, 784 0                                 
____________________________________________________________________________________
Model/Block0/relu (Dense)             (None, 32)  25120  input_1[0][0]              
____________________________________________________________________________________
Model/Block0/dropout (Dropout)        (None, 32)  0      Model/Block0/relu[0][0]    
____________________________________________________________________________________
Model/Block1/relu (Dense)             (None, 32)  25120  input_1[0][0]              
____________________________________________________________________________________
Model/Block0/softmax (Dense)          (None, 10)  330    Model/Block0/dropout[0][0] 
____________________________________________________________________________________
Model/Block1/dropout (Dropout)        (None, 32)  0      Model/Block1/relu[0][0]    
____________________________________________________________________________________
Model/Block2/relu (Dense)             (None, 32)  25120  input_1[0][0]              
____________________________________________________________________________________
tf_op_layer_AddV2 (TensorFlowOpLayer) [(32, 10)]  0      Model/Block0/softmax[0][0] 
____________________________________________________________________________________
Model/Block1/softmax (Dense)          (None, 10)  330    Model/Block1/dropout[0][0] 
____________________________________________________________________________________
Model/Block2/dropout (Dropout)        (None, 32)  0      Model/Block2/relu[0][0]    
____________________________________________________________________________________
Model/add/add1 (Lambda)               (32, 10)    0      tf_op_layer_AddV2[0][0]    
                                                         Model/Block1/softmax[0][0] 
____________________________________________________________________________________
Model/Block2/softmax (Dense)          (None, 10)  330    Model/Block2/dropout[0][0] 
____________________________________________________________________________________
Model/add/add2 (Lambda)               (32, 10)    0      Model/add/add1[0][0]       
                                                         Model/Block2/softmax[0][0] 
====================================================================================
```

Note the strange entry `tf_op_layer_AddV2 (TensorFlowOpLayer)`. This kind of entry makes the TensorBoard graphs very messy. It turns out that when avoiding the use of the `tf.zeros()`, this strange `tf_op_layer_AddV2` element is not added. So the following code will not generate any `tf_op_layer` element: 
…
    /home/nitin/anaconda3/envs/tensorflow/lib/python3.7/site-packages/tensorflow_core/python/ops/array_ops.py:752 _check_index
        raise TypeError(_SLICE_TYPE_ERROR + "", got {!r}"".format(idx))

    TypeError: Only integers, slices (`:`), ellipsis (`...`), tf.newaxis (`None`) and scalar tf.int32/tf.int64 tensors are valid indices, got 'col_0'
```"
39090,Problem with tfjs.converters.save_keras_model,"Model: ""sequential""
_________________________________________________________________
Layer (type)                 Output Shape              Param #   
=================================================================
conv2d (Conv2D)              (None, 224, 224, 32)      896       
_________________________________________________________________
max_pooling2d (MaxPooling2D) (None, 112, 112, 32)      0         
_________________________________________________________________
conv2d_1 (Conv2D)            (None, 112, 112, 64)      18496     
_________________________________________________________________
max_pooling2d_1 (MaxPooling2 (None, 56, 56, 64)        0         
_________________________________________________________________
conv2d_2 (Conv2D)            (None, 56, 56, 64)        36928     
_________________________________________________________________
max_pooling2d_2 (MaxPooling2 (None, 28, 28, 64)        0         
_________________________________________________________________
flatten (Flatten)            (None, 50176)             0         
_________________________________________________________________
dense (Dense)                (None, 512)               25690624  
_________________________________________________________________
dense_1 (Dense)              (None, 7)                 3591      
=================================================================
Total params: 25,750,535
Trainable params: 25,750,535
Non-trainable params: 0
_________________________________________________________________

This is a summary of the model that I made and trained, it's fairly simple, but when I use tensorflowjs to save it to a folder to be used as a javascript model in a browser, when I t
…
