…
WARNING:tensorflow:Tried to colocate tower0/gradients/tower0/cond/while_1/cond/Prod_grad/Const_1 with an op tower0/cond/while_1/cond/Prod that had a different device: /device:CPU:0 vs /device:GPU:0. Postponing error-checking until all devices are assigned.
WARNING:tensorflow:Tried to colocate tower0/gradients/tower0/cond/while_1/cond/Prod_grad/Prod_1 with an op tower0/cond/while_1/cond/Prod that had a different device: /device:CPU:0 vs /device:GPU:0. Postponing error-checking until all devices are assigned.
[0204 23:12:23 @training.py:347] 'sync_variables_from_main_tower' includes 0 operations.
[0204 23:12:23 @model_utils.py:64] Trainable Variables:
name shape dim

idn/idn/conv0/W:0 [3, 3, 256, 128] 294912
idn/idn/bn0/gamma:0 [128] 128
idn/idn/bn0/beta:0 [128] 128
idn/idn/conv1/W:0 [3, 3, 128, 128] 147456
idn/idn/bn1/gamma:0 [128] 128
idn/idn/bn1/beta:0 [128] 128
idn/idn/conv2/W:0 [3, 3, 128, 256] 294912
idn/idn/bn2/gamma:0 [256] 256
idn/idn/bn2/beta:0 [256] 256
idn/idn/conv3/W:0 [3, 3, 256, 256] 589824
idn/idn/bn3/gamma:0 [256] 256
idn/idn/bn3/beta:0 [256] 256
idn/idn/conv4/W:0 [3, 3, 256, 256] 589824
idn/idn/bn4/gamma:0 [256] 256
idn/idn/bn4/beta:0 [256] 256
idn/idn/conv5/W:0 [3, 3, 256, 256] 589824
idn/idn/bn5/gamma:0 [256] 256
idn/idn/bn5/beta:0 [256] 256
idn/idn/conv6/W:0 [3, 3, 256, 256] 589824
idn/idn/bn6/gamma:0 [256] 256
idn/idn/bn6/beta:0 [256] 256
idn/idn/fc1/W:0 [57600, 1000] 57600000
idn/idn/fc1/b:0 [1000] 1000
idn/idn/bn7/gamma:0 [1000] 1000
idn/idn/bn7/beta:0 [1000] 1000
idn/idn/fc2/W:0 [1000, 1000] 1000000
idn/idn/fc2/b:0 [1000] 1000
idn/idn/bn8/gamma:0 [1000] 1000
idn/idn/bn8/beta:0 [1000] 1000
idn/idn/idn_feat/W:0 [1000, 256] 256000
idn/idn/idn_feat/b:0 [256] 256
Total #vars=31, #params=61961904, size=236.37MB
[0204 23:12:23 @base.py:208] Setup callbacks graph ...
[0204 23:12:23 @argtools.py:146] WRN ""import prctl"" failed! Install python-prctl so that processes can be cleaned with guarantee.
[0204 23:12:24 @tower.py:130] Building graph for predict tower 'tower-pred-0' on device /gpu:0 ...
[0204 23:12:30 @collection.py:151] Size of these collections were changed in tower-pred-0: (tf.GraphKeys.MODEL_VARIABLES: 561->892)
…
2019-01-21 16:33:24.538312: I tensorflow/core/common_runtime/gpu/gpu_device.cc:1001] 0:   N 
2019-01-21 16:33:24.538695: I tensorflow/core/common_runtime/gpu/gpu_device.cc:1115] Created TensorFlow device (/job:localhost/replica:0/task:0/device:GPU:0 with 9966 MB memory) -> physical GPU (device: 0, name: GeForce RTX 2080 Ti, pci bus id: 0000:02:00.0, compute capability: 7.5)
_________________________________________________________________
Layer (type)                 Output Shape              Param #   
=================================================================
conv2d_1 (Conv2D)            (None, 128, 128, 32)      320       
_________________________________________________________________
activation_1 (Activation)    (None, 128, 128, 32)      0         
_________________________________________________________________
conv2d_2 (Conv2D)            (None, 126, 126, 32)      9248      
_________________________________________________________________
activation_2 (Activation)    (None, 126, 126, 32)      0         
_________________________________________________________________
max_pooling2d_1 (MaxPooling2 (None, 63, 63, 32)        0         
_________________________________________________________________
dropout_1 (Dropout)          (None, 63, 63, 32)        0         
_________________________________________________________________
conv2d_3 (Conv2D)            (None, 61, 61, 64)        18496     
_________________________________________________________________
activation_3 (Activation)    (None, 61, 61, 64)        0         
_________________________________________________________________
max_pooling2d_2 (MaxPooling2 (None, 30, 30, 64)        0         
_________________________________________________________________
dropout_2 (Dropout)          (None, 30, 30, 64)        0         
_________________________________________________________________
flatten_1 (Flatten)          (None, 57600)             0         
_________________________________________________________________
dense_1 (Dense)              (None, 256)               14745856  
_________________________________________________________________
activation_4 (Activation)    (None, 256)               0         
_________________________________________________________________
dropout_3 (Dropout)          (None, 256)               0         
_________________________________________________________________
dense_2 (Dense)              (None, 34)                8738      
_________________________________________________________________
activation_5 (Activation)    (None, 34)                0         
=================================================================
Total params: 14,782,658
Trainable params: 14,782,658
Non-trainable params: 0
_________________________________________________________________
2019-01-21 16:33:25.223019: I tensorflow/compiler/xla/service/service.cc:149] XLA service 0x7f6f20001130 executing computations on platform CUDA. Devices:
**2019-01-21 16:33:25.223063: I tensorflow/compiler/xla/service/service.cc:157]   StreamExecutor device (0): GeForce RTX 2080 Ti, Compute Capability 7.5
…
