…
print(""y"", y.shape)

y_pred = model.predict(x)
print(""Predict successful: "", y_pred.shape)

print(""Begin training with fit"")
model.fit(x, y, epochs=10)
print(""Fit successful"")

print(""Begin training with train_on_batch"")
for i in range(10):
    model.train_on_batch(x, y)
print(""On batch successful"")
```

**Other info / logs**

Output and stack trace:

```
Model: ""sequential""
_________________________________________________________________
Layer (type)                 Output Shape              Param #   
=================================================================
conv2d (Conv2D)              (None, 111, 111, 1)       28        
_________________________________________________________________
conv2d_1 (Conv2D)            (None, 55, 55, 1)         10        
_________________________________________________________________
conv2d_2 (Conv2D)            (None, 27, 27, 1)         10        
_________________________________________________________________
conv2d_3 (Conv2D)            (None, 13, 13, 1)         10        
_________________________________________________________________
conv2d_4 (Conv2D)            (None, 6, 6, 1)           10        
_________________________________________________________________
conv2d_5 (Conv2D)            (None, 2, 2, 1)           10        
_________________________________________________________________
conv2d_6 (Conv2D)            (None, 1, 1, 1)           5         
=================================================================
Total params: 83
Trainable params: 83
Non-trainable params: 0
_________________________________________________________________
GPU is available: True
x (10, 224, 224, 3)
y (10, 1, 1, 1)
Predict successful:  (10, 1, 1, 1)
Begin training with fit
Train on 10 samples
Epoch 1/10

10/10 [==============================] - 1s 82ms/sample - loss: 0.6654
…
I'm trying to add a kl divergence regularizer which relies on 2 intermediate layers of the encoder model. This custom loss in Keras model returns a tensor instead of a scalar when using outputs of intermediate layers. This appears to be adding operators to the graph at each iteration until I get a CUDA out of memory error.  

```
__________________________________________________________________________________________________
Layer (type)                    Output Shape         Param #     Connected to                     
==================================================================================================
input_1 (InputLayer)            [(None, 64, 64, 3)]  0                                            
__________________________________________________________________________________________________
conv2d (Conv2D)                 (None, 32, 32, 32)   1568        input_1[0][0]                    
__________________________________________________________________________________________________
conv2d_1 (Conv2D)               (None, 16, 16, 32)   16416       conv2d[0][0]                     
__________________________________________________________________________________________________
conv2d_2 (Conv2D)               (None, 8, 8, 32)     16416       conv2d_1[0][0]                   
__________________________________________________________________________________________________
conv2d_3 (Conv2D)               (None, 4, 4, 32)     16416       conv2d_2[0][0]                   
__________________________________________________________________________________________________
flatten (Flatten)               (None, 512)          0           conv2d_3[0][0]                   
__________________________________________________________________________________________________
dense (Dense)                   (None, 256)          131328      flatten[0][0]                    
__________________________________________________________________________________________________
dense_1 (Dense)                 (None, 256)          65792       dense[0][0]                      
__________________________________________________________________________________________________
dense_2 (Dense)                 (None, 32)           8224        dense_1[0][0]                    
__________________________________________________________________________________________________
dense_3 (Dense)                 (None, 32)           8224        dense_1[0][0]                    
__________________________________________________________________________________________________
reparameterize (Reparameterize) (None, 32)           0           dense_2[0][0]                    
                                                                 dense_3[0][0]                    
__________________________________________________________________________________________________
model_1 (Model)                 (None, 64, 64, 3)    256611      reparameterize[0][0]             
==================================================================================================
Total params: 520,995
Trainable params: 520,995
Non-trainable params: 0
__________________________________________________________________________________________________
2019-10-29 20:54:07.009002: I tensorflow/stream_executor/platform/default/dso_loader.cc:44] Successfully opened dynamic library libcudnn.so.7
…
tensorflow as tf; print(tf.GIT_VERSION, tf.VERSION)""` 2. TF 2.0: `python -c
""import tensorflow as tf; print(tf.version.GIT_VERSION, tf.version.VERSION)""`
have done locally (pip install) and recently trying anaconda 
` conda create -n tf-n python  
 conda activate tf-n  
 pip install tf-nightly`

**Describe the current behavior**
Here is error --says save method is not available.  
`Model: ""sequential_2""
_________________________________________________________________
Layer (type)                 Output Shape              Param #   
=================================================================
conv2d_4 (Conv2D)            (None, 148, 148, 32)      896       
_________________________________________________________________
max_pooling2d_4 (MaxPooling2 (None, 74, 74, 32)        0         
_________________________________________________________________
conv2d_5 (Conv2D)            (None, 72, 72, 64)        18496     
_________________________________________________________________
max_pooling2d_5 (MaxPooling2 (None, 36, 36, 64)        0         
_________________________________________________________________
conv2d_6 (Conv2D)            (None, 34, 34, 128)       73856     
_________________________________________________________________
max_pooling2d_6 (MaxPooling2 (None, 17, 17, 128)       0         
_________________________________________________________________
conv2d_7 (Conv2D)            (None, 15, 15, 128)       147584    
_________________________________________________________________
max_pooling2d_7 (MaxPooling2 (None, 7, 7, 128)         0         
_________________________________________________________________
dropout_1 (Dropout)          (None, 7, 7, 128)         0         
_________________________________________________________________
flatten_1 (Flatten)          (None, 6272)              0         
_________________________________________________________________
dense_2 (Dense)              (None, 512)               3211776   
_________________________________________________________________
dense_3 (Dense)              (None, 2)                 1026      
=================================================================
Total params: 3,453,634
Trainable params: 3,453,634
Non-trainable params: 0
_________________________________________________________________
 want to save tflite_fileC:\Grewe\Classes\CS663\Mat\TensorFlow\cats_and_dogs_filtered\my_tflite_model.h5
converter = <tensorflow.lite.python.lite.TFLiteConverterV2 object at 0x00000225A2142240>
…
