…
model.add(conv_layer)
model.add(MaxPooling1D(pool_size=13,
                       strides=13))

model.add(LSTM(320, return_sequences=True))

model.add(Flatten())
model.add(Dense(925,
                activation='relu'))
model.add(Dense(919,
                activation='sigmoid'))

model.compile(loss='binary_crossentropy',
              optimizer='rmsprop',
              metrics=['accuracy'])

_________________________________________________________________
Layer (type)                 Output Shape              Param #   
=================================================================
conv1d_1 (Conv1D)            (None, 975, 320)          33600     
_________________________________________________________________
max_pooling1d_1 (MaxPooling1 (None, 75, 320)           0         
_________________________________________________________________
lstm_1 (LSTM)                (None, 75, 320)           820480    
_________________________________________________________________
flatten_1 (Flatten)          (None, 24000)             0         
_________________________________________________________________
dense_1 (Dense)              (None, 925)               22200925  
_________________________________________________________________
dense_2 (Dense)              (None, 919)               850994    
=================================================================
Total params: 23,905,999
Trainable params: 23,905,999
Non-trainable params: 0
_________________________________________________________________
```

but produces this error in `keras v2.0.8-tf`:

```python
---------------------------------------------------------------------------
ValueError                                Traceback (most recent call last)
…
- **Python version**: 3
- **Bazel version (if compiling from source)**: 
- **GCC/Compiler version (if compiling from source)**: 
- **CUDA/cuDNN version**: 8.0/6
- **GPU model and memory**: NVIDIA Tesla k80 totalMemory: 11.17GiB freeMemory: 11.09GiB
- **Exact command to reproduce**: See below:

### Below is the log:

> keep_dims is deprecated, use keepdims instead
> _________________________________________________________________
> Layer (type)                 Output Shape              Param #   
> =================================================================
> input_1 (InputLayer)         (None, 7, 264)            0         
> _________________________________________________________________
> reshape_1 (Reshape)          (None, 7, 264, 1)         0         
> _________________________________________________________________
> conv2d_1 (Conv2D)            (None, 7, 264, 64)        16960     
> _________________________________________________________________
> max_pooling2d_1 (MaxPooling2 (None, 7, 132, 64)        0         
> _________________________________________________________________
> flatten_1 (Flatten)          (None, 59136)             0         
> _________________________________________________________________
> dense_1 (Dense)              (None, 1024)              60556288  
> _________________________________________________________________
> dropout_1 (Dropout)          (None, 1024)              0         
> _________________________________________________________________
> dense_2 (Dense)              (None, 512)               524800    
> _________________________________________________________________
> dropout_2 (Dropout)          (None, 512)               0         
> _________________________________________________________________
> dense_3 (Dense)              (None, 88)                45144     
> =================================================================
> Total params: 61,143,192
> Trainable params: 61,143,192
> Non-trainable params: 0
> _________________________________________________________________
> /home/hpnhxxwn/miniconda3/envs/carnd-term1/lib/python3.5/site-packages/keras/engine/training.py:2057: UserWarning: Using a generator with `use_multiprocessing=True` and multiple worker
…
