…
    model = Model(input_tensor, out)
    model.compile(loss=""mse"", optimizer=tf.train.AdamOptimizer(learning_rate=0.001))
    model.summary()
    model.layers.pop()
    model.layers.pop()
    model.summary()
    hidden = Dense(120, activation='relu')(model.layers[-1].output)
    out = Dense(5, activation='softmax')(hidden)
    model = Model(input_tensor, out)
    model.summary()

```
_________________________________________________________________
Layer (type)                 Output Shape              Param #   
=================================================================
input_1 (InputLayer)         (None, 10)                0         
_________________________________________________________________
dense (Dense)                (None, 100)               1100      
_________________________________________________________________
dense_1 (Dense)              (None, 10)                1010      
=================================================================
Total params: 2,110
Trainable params: 2,110
Non-trainable params: 0
```
```
_________________________________________________________________
_________________________________________________________________
Layer (type)                 Output Shape              Param #   
=================================================================
input_1 (InputLayer)         (None, 10)                0         
_________________________________________________________________
dense (Dense)                (None, 100)               1100      
_________________________________________________________________
dense_1 (Dense)              (None, 10)                1010      
=================================================================
Total params: 2,110
Trainable params: 2,110
Non-trainable params: 0

```

```
_________________________________________________________________
_________________________________________________________________
Layer (type)                 Output Shape              Param #   
=================================================================
input_1 (InputLayer)         (None, 10)                0         
_________________________________________________________________
dense (Dense)                (None, 100)               1100      
_________________________________________________________________
dense_1 (Dense)              (None, 10)                1010      
_________________________________________________________________
dense_2 (Dense)              (None, 120)               1320      
_________________________________________________________________
dense_3 (Dense)              (None, 5)                 605       
=================================================================
Total params: 4,035
Trainable params: 4,035
Non-trainable params: 0
_________________________________________________________________
```"
22477,failed to query event: CUDA_ERROR_LAUNCH_FAILED,"

### System information
- **Have I written custom code (as opposed to using a stock example script provided in TensorFlow)**: Yes
- **OS Platform and Distribution (e.g., Linux Ubuntu 16.04)**: 
…
