…
| 3.7.8  | 1.15.2-gpu | 1.15.3     | yes | desktop, tf-gpu package                   | ~166m     |
| 3.7.8  | latest-gpu | 1.15.3     | no  | desktop, tf-gpu package                   | 6m30.067s |
| 3.7.8  | latest-gpu | 2.2.0      | yes | desktop, keras 2.4.x                      | ~175m     | 

I'm using keras with a sequential model (see below), doing reinforcement learning with 180 memory replays (model.fit) per episode.

```
Model: ""sequential""
_________________________________________________________________
Layer (type)                 Output Shape              Param #   
=================================================================
reshape (Reshape)            (None, 40, 1)             0         
_________________________________________________________________
conv1d (Conv1D)              (None, 38, 16)            64        
_________________________________________________________________
max_pooling1d (MaxPooling1D) (None, 19, 16)            0         
_________________________________________________________________
conv1d_1 (Conv1D)            (None, 17, 16)            784       
_________________________________________________________________
max_pooling1d_1 (MaxPooling1 (None, 8, 16)             0         
_________________________________________________________________
flatten (Flatten)            (None, 128)               0         
_________________________________________________________________
dense (Dense)                (None, 48)                6192      
_________________________________________________________________
dense_1 (Dense)              (None, 24)                1176      
_________________________________________________________________
dense_2 (Dense)              (None, 3)                 75        
=================================================================
Total params: 8,291
Trainable params: 8,291
Non-trainable params: 0
```

I'm going to try and provide a minimal python example ASAP.
"
41107,UnimplementedError: Fused conv implementation does not support grouped convolutions for now.,"I follow the TensorFlow tutorial [(https://www.tensorflow.org/tutorials/images/classification)] for image classification when I try to compile the model, it gave me an error like this
…
according to #36219 is seems that this type of error coudl be raised when using TFLite for microcontroller, this is not the intention here. Is there something to do to ensure that it is not the version for microcontroller which is used. 
For context, the target is the coral dev board (edge-tpu on linux platform).

**Any other info / logs**
model summary that I tried to convert.
```
Layer (type)                    Output Shape         Param #     Connected to                     
==================================================================================================
inputs (InputLayer)             [(None, 250, 1)]     0                                            
__________________________________________________________________________________________________
bidirectional (Bidirectional)   (None, 250, 100)     20800       inputs[0][0]                     
__________________________________________________________________________________________________
flatten (Flatten)               (None, 25000)        0           bidirectional[0][0]              
__________________________________________________________________________________________________
flatten_1 (Flatten)             (None, 250)          0           inputs[0][0]                     
__________________________________________________________________________________________________
concatenate (Concatenate)       (None, 25250)        0           flatten[0][0]                    
                                                                 flatten_1[0][0]                  
__________________________________________________________________________________________________
dense (Dense)                   (None, 2048)         51714048    concatenate[0][0]                
__________________________________________________________________________________________________
dense_1 (Dense)                 (None, 1024)         2098176     dense[0][0]                      
__________________________________________________________________________________________________
dense_2 (Dense)                 (None, 512)          524800      dense_1[0][0]                    
__________________________________________________________________________________________________
dense_7 (Dense)                 (None, 2048)         51714048    concatenate[0][0]                
__________________________________________________________________________________________________
dense_3 (Dense)                 (None, 256)          131328      dense_2[0][0]                    
__________________________________________________________________________________________________
dense_8 (Dense)                 (None, 1024)         2098176     dense_7[0][0]                    
__________________________________________________________________________________________________
dense_4 (Dense)                 (None, 128)          32896       dense_3[0][0]                    
__________________________________________________________________________________________________
dense_9 (Dense)                 (None, 512)          524800      dense_8[0][0]                    
__________________________________________________________________________________________________
dense_5 (Dense)                 (None, 50)           6450        dense_4[0][0]                    
__________________________________________________________________________________________________
dense_10 (Dense)                (None, 256)          131328      dense_9[0][0]                    
__________________________________________________________________________________________________
reshape (Reshape)               (None, 50, 1)        0           dense_5[0][0]                    
__________________________________________________________________________________________________
dense_11 (Dense)                (None, 128)          32896       dense_10[0][0]                   
__________________________________________________________________________________________________
time_distributed (TimeDistribut (None, 50, 1)        2           reshape[0][0]                    
__________________________________________________________________________________________________
dense_12 (Dense)                (None, 50)           6450        dense_11[0][0]                   
__________________________________________________________________________________________________
om (Reshape)                    (None, 50, 1)        0           time_distributed[0][0]           
__________________________________________________________________________________________________
reshape_1 (Reshape)             (None, 50, 1)        0           dense_12[0][0]                   
__________________________________________________________________________________________________
concatenate_1 (Concatenate)     (None, 50, 2)        0           om[0][0]                         
                                                                 reshape_1[0][0]                  
__________________________________________________________________________________________________
flatten_2 (Flatten)             (None, 100)          0           concatenate_1[0][0]              
__________________________________________________________________________________________________
dense_13 (Dense)                (None, 100)          10100       flatten_2[0][0]                  
__________________________________________________________________________________________________
dense_14 (Dense)                (None, 100)          10100       dense_13[0][0]                   
__________________________________________________________________________________________________
dense_15 (Dense)                (None, 50)           5050        dense_14[0][0]                   
__________________________________________________________________________________________________
dense_16 (Dense)                (None, 50)           2550        dense_15[0][0]                   
__________________________________________________________________________________________________
reshape_2 (Reshape)             (None, 50, 1)        0           dense_16[0][0]                   
__________________________________________________________________________________________________
time_distributed_1 (TimeDistrib (None, 50, 1)        2           reshape_2[0][0]                  
__________________________________________________________________________________________________
of (Reshape)                    (None, 50, 1)        0           time_distributed_1[0][0]         
==================================================================================================
Total params: 109,064,000
Trainable params: 109,064,000
Non-trainable params: 0
```

"
40509,GatherV2 bug from pb->tflite,"<em>Please make sure that this is a bug. As per our
[GitHub Policy](https://github.com/tensorflow/tensorflow/blob/master/ISSUES.md),
…
