…
    x = RepeatVector(7,name='repeat')(x)

    #2*GRU the output shape is (None,7,256)
    x = Bidirectional(GRU(units=128,name='GRU',return_sequences=True))(x)

    #apply (None,7,256) to all GRUs output (None,7,16)
    x = TimeDistributed(Dense(16,name='fc2'))(x)
    x = Activation('softmax')(x)
    x = Flatten(name='Flatten2',inputs=x)

when I show my summary, it print like this
_________________________________________________________________
Layer (type)                 Output Shape              Param #   
=================================================================
input_1 (InputLayer)         (None, 90, 30, 3)         0         
_________________________________________________________________
conv1 (Conv2D)               (None, 88, 28, 32)        896       
_________________________________________________________________
pool1 (MaxPooling2D)         (None, 44, 14, 32)        0         
_________________________________________________________________
bn1 (BatchNormalization)     (None, 44, 14, 32)        128       
_________________________________________________________________
activation_1 (Activation)    (None, 44, 14, 32)        0         
_________________________________________________________________
conv2 (Conv2D)               (None, 42, 12, 64)        18496     
_________________________________________________________________
pool2 (MaxPooling2D)         (None, 21, 6, 64)         0         
_________________________________________________________________
bn2 (BatchNormalization)     (None, 21, 6, 64)         256       
_________________________________________________________________
activation_2 (Activation)    (None, 21, 6, 64)         0         
_________________________________________________________________
conv3 (Conv2D)               (None, 19, 4, 64)         36928     
_________________________________________________________________
pool3 (MaxPooling2D)         (None, 9, 2, 64)          0         
_________________________________________________________________
bn3 (BatchNormalization)     (None, 9, 2, 64)          256       
_________________________________________________________________
activation_3 (Activation)    (None, 9, 2, 64)          0         
_________________________________________________________________
flatte1 (Flatten)            (None, 1152)              0         
_________________________________________________________________
fc1 (Dense)                  (None, 256)               295168    
_________________________________________________________________
repeat (RepeatVector)        (None, 7, 256)            0         
_________________________________________________________________
bidirectional_1 (Bidirection (None, 7, 256)            295680    
_________________________________________________________________
time_distributed_1 (TimeDist (None, 7, 16)             4112      
_________________________________________________________________
Flatten2 (Flatten)           (None, 112)               0         
=================================================================

but when I change my codes to tf.keras like this(the architecture do not change! )
_________________________________________________________________
repeat (RepeatVector)        (None, 7, 256)            0         
_________________________________________________________________
bidirectional_1 (Bidirection (None, None, 256)         295680    
_________________________________________________________________
time_distributed_1 (TimeDist (None, None, 16)          4112      
_________________________________________________________________
activation_4 (Activation)    (None, None, 16)          0         
…
