…
    prelogits = tf.layers.dense(features, 128, activation=tf.nn.elu)
    logits = tf.layers.dense(prelogits, 10, activation=tf.nn.softmax)
    
    return logits

pred = tf.contrib.keras.layers.Lambda(simple_model)(features)
```

Both of them then made with `model = kmodels.Model(inputs=features, outputs=pred)`

Nevertheless, when I use `model.summary()` , Kesar model give me correct output:
```
_________________________________________________________________
Layer (type)                 Output Shape              Param #   
=================================================================
input_1 (InputLayer)         (None, 28, 28, 1)         0         
_________________________________________________________________
conv2d_1 (Conv2D)            (None, 13, 13, 64)        640       
_________________________________________________________________
max_pooling2d_1 (MaxPooling2 (None, 6, 6, 64)          0         
_________________________________________________________________
conv2d_2 (Conv2D)            (None, 2, 2, 32)          18464     
_________________________________________________________________
flatten_1 (Flatten)          (None, 128)               0         
_________________________________________________________________
dense_1 (Dense)              (None, 128)               16512     
_________________________________________________________________
dense_2 (Dense)              (None, 10)                1290      
=================================================================
Total params: 36,906
Trainable params: 36,906
Non-trainable params: 0
_________________________________________________________________
```
**but** TF one, give only:
```
_________________________________________________________________
Layer (type)                 Output Shape              Param #   
=================================================================
input_1 (InputLayer)         (None, 28, 28, 1)         0         
_________________________________________________________________
lambda_1 (Lambda)            (None, 10)                0         
=================================================================
Total params: 0
Trainable params: 0
Non-trainable params: 0
_________________________________________________________________
```

Is it correct, that TF-Keras cannot see TF variables and optimize them? So we still have separated Tensorflow an Keras frameworks?
Why cannot I use TF as Keras backend?
TF-versions: from 1.1.0 to 1.2.0rc1"
…
