…
2020-04-04 11:20:00.358698: I tensorflow/compiler/xla/service/service.cc:176]   StreamExecutor device (0): Host, Default Version
Model: ""model_4""
__________________________________________________________________________________________________
Layer (type)                    Output Shape         Param #     Connected to                     
==================================================================================================
input_5 (InputLayer)            [(None, 2)]          0                                            
__________________________________________________________________________________________________
reshape_2 (Reshape)             (None, 1, 2)         0           input_5[0][0]                    
__________________________________________________________________________________________________
reshape_1 (Reshape)             (None, 1, 2)         0           input_5[0][0]                    
__________________________________________________________________________________________________
reshape (Reshape)               (None, 2, 1)         0           input_5[0][0]                    
__________________________________________________________________________________________________
up_sampling1d_2 (UpSampling1D)  (None, 3, 2)         0           reshape_2[0][0]                  
__________________________________________________________________________________________________
up_sampling1d_1 (UpSampling1D)  (None, 3, 2)         0           reshape_1[0][0]                  
__________________________________________________________________________________________________
up_sampling1d (UpSampling1D)    (None, 4, 1)         0           reshape[0][0]                    
__________________________________________________________________________________________________
reshape_5 (Reshape)             (None, 2, 1)         0           input_5[0][0]                    
__________________________________________________________________________________________________
zero_padding1d_1 (ZeroPadding1D (None, 4, 2)         0           up_sampling1d_2[0][0]            
__________________________________________________________________________________________________
zero_padding1d (ZeroPadding1D)  (None, 4, 2)         0           up_sampling1d_1[0][0]            
__________________________________________________________________________________________________
conv1d (Conv1D)                 (None, 4, 2)         4           up_sampling1d[0][0]              
__________________________________________________________________________________________________
max_pooling1d (MaxPooling1D)    (None, 1, 1)         0           reshape_5[0][0]                  
__________________________________________________________________________________________________
reshape_3 (Reshape)             (None, 2, 1)         0           input_5[0][0]                    
__________________________________________________________________________________________________
conv1d_1 (Conv1D)               (None, 4, 4)         12          zero_padding1d_1[0][0]           
__________________________________________________________________________________________________
dot (Dot)                       (None, 4, 4)         0           zero_padding1d[0][0]             
                                                                 conv1d[0][0]                     
__________________________________________________________________________________________________
spatial_dropout1d (SpatialDropo (None, 1, 1)         0           max_pooling1d[0][0]              
__________________________________________________________________________________________________
global_average_pooling1d (Globa (None, 1)            0           reshape_3[0][0]                  
__________________________________________________________________________________________________
dot_1 (Dot)                     (None, 4, 4)         0           conv1d_1[0][0]                   
                                                                 dot[0][0]                        
__________________________________________________________________________________________________
alpha_dropout (AlphaDropout)    (None, 1, 1)         0           spatial_dropout1d[0][0]          
__________________________________________________________________________________________________
reshape_4 (Reshape)             (None, 1, 1)         0           global_average_pooling1d[0][0]   
__________________________________________________________________________________________________
dropout (Dropout)               (None, 4, 4)         0           dot_1[0][0]                      
__________________________________________________________________________________________________
flatten (Flatten)               (None, 1)            0           alpha_dropout[0][0]              
__________________________________________________________________________________________________
global_average_pooling1d_1 (Glo (None, 1)            0           reshape_4[0][0]                  
__________________________________________________________________________________________________
flatten_1 (Flatten)             (None, 16)           0           dropout[0][0]                    
__________________________________________________________________________________________________
concatenate (Concatenate)       (None, 20)           0           input_5[0][0]                    
                                                                 flatten[0][0]                    
                                                                 global_average_pooling1d_1[0][0] 
                                                                 flatten_1[0][0]                  
__________________________________________________________________________________________________
dense_4 (Dense)                 (None, 2)            42          concatenate[0][0]                
==================================================================================================
Total params: 58
Trainable params: 58
Non-trainable params: 0
__________________________________________________________________________________________________
Train on 8000 samples, validate on 2000 samples
Epoch 1/3
2020-04-04 11:20:02.351817: E tensorflow/core/grappler/optimizers/meta_optimizer.cc:561] remapper failed: Invalid argument: MutableGraphView::MutableGraphView error: node 'model_4/up_sampling1d_2/concat' has self cycle fanin 'model_4/up_sampling1d_2/concat'.
…
I am pretty sure I am not running out of memory as previously I have trained the very same model with 10 times the parameters (~25M) compared to the parameters it has right now (~2M). Even the GPU usage barely exceeds 5%. I have GTX 1050ti 4GB. I have successfully run the above model, with varying number of total parameters, plenty of times before but only since yesterday this issue is coming up. Now the model runs fine only if I omit just the LSTM layer.

```
Model: ""sequential""
_________________________________________________________________
Layer (type)                 Output Shape              Param #   
=================================================================
embedding (Embedding)        (None, 200, 128)          1920000   
_________________________________________________________________
bidirectional (Bidirectional (None, 200, 128)          98816     
_________________________________________________________________
global_average_pooling1d (Gl (None, 128)               0         
_________________________________________________________________
dropout (Dropout)            (None, 128)               0         
_________________________________________________________________
dense (Dense)                (None, 50)                6450      
_________________________________________________________________
dropout_1 (Dropout)          (None, 50)                0         
_________________________________________________________________
dense_1 (Dense)              (None, 1)                 51        
=================================================================
Total params: 2,025,317
Trainable params: 2,025,317
Non-trainable params: 0
```

Below is the exact error. 

```
Train on 143613 samples, validate on 15958 samples
Epoch 1/5
Traceback (most recent call last):

  File ""C:\Users\admin\Documents\Machine Learning\Projects\Classification\jigsaw-toxic-comment-classification-challenge\toxic_classifier.py"", line 122, in <module>
…
